tag1_model.pt (torch, 299833 bytes, 5 tensors)

embedding.weight f4 [2182, 32]
0	0xbfd7a2ba	-1.6846535
1	0xbfea3a3f	-1.8299025
2	0xbe81ded8	-0.2536533
3	0xbf0c970a	-0.5491797
4	0xbe4d192d	-0.20029135
5	0x3d04f0b0	0.0324561
6	0xbeea9ce9	-0.45822838
7	0x3f40a4de	0.7525157
8	0xbfeb306b	-1.8374151
9	0x3f48ba5a	0.7840935
10	0x3de822a1	0.1133473
11	0x3e15d4a4	0.14631897
12	0xbf2933af	-0.6609449
13	0xbf87e7e6	-1.0617645
14	0x3d018a8b	0.031626265
15	0xbf056eac	-0.52121997
16	0x3f22eb73	0.63640517
17	0x3df9f9d5	0.12205855
18	0x3f2a9d46	0.6664623
19	0x3f1afc07	0.60540813
20	0x3e8ba8b4	0.27277148
21	0xbfd17cfa	-1.6366265
22	0xbfa6249b	-1.2979921
23	0xbf030ab3	-0.511882
24	0xbe778e0d	-0.24175282
25	0x3ffd6188	1.9795389
26	0x4008ce78	2.1376019
27	0x3f138b9b	0.57634896
28	0x3f847d3b	1.0350717
29	0x3e3f4cbb	0.18681614
30	0x3f678a1e	0.90445125
31	0xbe8784b6	-0.26468438
32	0xbf2ebc6d	-0.68256265
33	0xbd94bd0d	-0.07262621
34	0x3ecc8844	0.39947712
35	0xbfdaf6c8	-1.7106562
36	0xbf90d7fa	-1.1315911
37	0x3f4b75d7	0.79476684
38	0x3f1fb6d6	0.6238836
39	0x3fc8611a	1.5654633
40	0xbf714ef5	-0.94261104
41	0xbfb63d01	-1.4237367
42	0xbf63326c	-0.8874881
43	0x3fe84996	1.8147457
44	0xbfc9769c	-1.5739322
45	0x3d1faeed	0.03898518
46	0x3f50233a	0.8130375
47	0x3eb4422f	0.35206744
48	0xbe5aeeec	-0.21380204
49	0xbf6a7bce	-0.9159516
50	0x3ed55483	0.4166604
51	0xbf0f7ab5	-0.5604661
52	0x3edce9b4	0.4314705
53	0xbfa3917c	-1.2778773
54	0x3f501f43	0.812977
55	0x3ed6e436	0.41970986
56	0xbd75bfef	-0.059997495
57	0xbf37fdfc	-0.71871924
58	0xbffc357d	-1.9703823
59	0xbf9c1491	-1.2193776
60	0xbf9a2d84	-1.204514
61	0x3f76ff04	0.9648287
62	0x3fec31e0	1.8452721
63	0xbe8fa53e	-0.28055757
64	0x3e3b64cb	0.18300168
65	0x3c9dbc8f	0.01925495
66	0x3e7d6c5e	0.2474837
67	0xc017508c	-2.3642912
68	0x3fcbb539	1.591468
69	0xbe5374fd	-0.20650096
70	0x3e4542b3	0.19263725
71	0xbfce1557	-1.6100262
72	0x3e8b060b	0.27153048
73	0x3e01badd	0.12668939
74	0xbea52a5a	-0.32258874
75	0x4009d897	2.1538446
76	0x3e373fcf	0.17895435
77	0xbe0b8372	-0.13624361
78	0x4013eb58	2.3112392
79	0x3f62c9dc	0.8858926
80	0x3ea9370a	0.33049804
81	0xbd85b246	-0.065281436
82	0xbfaaad8e	-1.3334215
83	0x3fbc1acb	1.4695677
84	0x3eeaad13	0.4583517
85	0xbf501097	-0.81275314
86	0x3f993c3e	1.197151
87	0x3f1011cb	0.5627715
88	0x3feb9b71	1.8406812
89	0xbe3cb2af	-0.18427537
90	0x3eddbff8	0.43310523
91	0x3f351dec	0.7074878
92	0x3e9915a4	0.29899323
93	0x3e07148c	0.13191432
94	0xbd5a7222	-0.0533315
95	0xbfbb3bb0	-1.462759
96	0xbf06f93c	-0.5272405
97	0x3eabac99	0.3353012
98	0x3e979d1a	0.29612046
99	0x3f3f60ee	0.7475728
100	0xbeca0521	-0.39457038
101	0x3f4e5118	0.8059249
102	0x3ee8ca1a	0.4546669
103	0xbf4a8e4b	-0.7912337
104	0xbfe0f2be	-1.7574079
105	0x3e5f89cf	0.21829914
106	0xbf113623	-0.5672323
107	0x3f976f0a	1.1830761
108	0xbf0fe16a	-0.5620333
109	0x3f364382	0.7119676
110	0x3e4c02fb	0.19923012
111	0xbf343b7f	-0.70403284
112	0xbe98a301	-0.29811862
113	0xbdd8ed83	-0.10592177
114	0x3fe5e022	1.7959025
115	0xbd2d99e4	-0.04238309
116	0x3f45d215	0.77273685
117	0x3f81cf10	1.0141315
118	0x3f15807d	0.5839918
119	0x3fb2a274	1.3955827
120	0xbe2128ac	-0.15738171
121	0xbf7b4fce	-0.9816865
122	0x3f0e9928	0.5570245
123	0x3f847fa1	1.0351449
124	0x3da4ee26	0.08053236
125	0xbfd7867e	-1.6837919
126	0x3f74c13d	0.9560736
127	0x3f082285	0.5317767
128	0xbf707cc7	-0.93940395
129	0xc050fc76	-3.265409
130	0x3f55d72f	0.8353147
131	0xbedb971b	-0.42888722
132	0xbeaee79e	-0.34161085
133	0xbf4eaa6b	-0.8072879
134	0xbeec9480	-0.46207047
135	0xbe77ba3e	-0.2419214
136	0xbed03553	-0.40665683
137	0x3f613738	0.8797488
138	0xbf285526	-0.65754926
139	0xbfb2a080	-1.3955231
140	0xbe4dc988	-0.2009641
141	0xbf9cc095	-1.2246271
142	0x3ebeff49	0.37304142
143	0x402400a3	2.5625389
144	0x3f633ef9	0.88767964
145	0xbe6380bb	-0.22217076
146	0x3f95df26	1.1708724
147	0xbf64e0d0	-0.89405537
148	0xbf0c747d	-0.54865247
149	0xbee14706	-0.439995
150	0xbf8e2fc2	-1.1108325
151	0x3f054ba3	0.5206854
152	0xbe8cfc60	-0.27536297
153	0xbf5b62d1	-0.85697657
154	0xbf7cd35b	-0.9876
155	0x3e54a80d	0.20767231
156	0xbf92da26	-1.1472824
157	0x3f437f68	0.7636628
158	0xc00b4015	-2.1757863
159	0x3f8324f3	1.0245651
160	0x3f0df856	0.55457056
161	0xbe7f5cb8	-0.24937713
162	0xbfeebb54	-1.8650918
163	0xbf0d4d9a	-0.55196536
164	0x3f7058aa	0.9388529
165	0xbf62e0f2	-0.8862449
166	0x3fc664d1	1.5499517
167	0xbdd432fd	-0.10361288
168	0x3f29927b	0.66239136
169	0xbf69ffd6	-0.91406
170	0xbec23781	-0.3793297
171	0xc03b01d0	-2.9219856
172	0xbeb92d5a	-0.36167413
173	0x3d7ff090	0.062485278
174	0x3f50e55f	0.8159999
175	0x3f0e7974	0.5565407
176	0xc015699d	-2.3345711
177	0xbf6b6618	-0.9195266
178	0x3e1702a4	0.14747101
179	0x3f94b734	1.1618409
180	0x3ff287f8	1.8947744
181	0xbf31ef70	-0.6950598
182	0xbf6331fb	-0.8874814
183	0x3ef96346	0.48708552
184	0x3fc1ebff	1.5150145
185	0x3f55d94a	0.8353468
186	0xbf10fba0	-0.5663395
187	0x3e5311b5	0.20612223
188	0xbf8341d6	-1.0254467
189	0x3f9798aa	1.1843464
190	0x3fc77d9f	1.5585212
191	0x3faac4c4	1.3341298
192	0x3f9c53c9	1.2213069
193	0x4007caa5	2.1217434
194	0xbfb5ebba	-1.4212563
195	0xbf0292bb	-0.5100514
196	0x40225d8d	2.53696
197	0xbf5c7aa1	-0.86124617
198	0xbf40f58f	-0.7537469
199	0x3fae3456	1.3609722
200	0xbf07a5b4	-0.5298722
201	0x3f853f27	1.0409898
202	0x3f82c130	1.0215206
203	0x3f955ef2	1.16696
204	0xbfaad5ef	-1.3346537
205	0xbfeef791	-1.8669301
206	0xbffb8b4f	-1.9651889
207	0xbe8684ce	-0.26273197
208	0x3eb0a1d6	0.3449847
209	0x3fc10f7e	1.5082853
210	0xbf831a90	-1.0242481
211	0x3fa65ec8	1.2997675
212	0xbf3fe060	-0.74951744
213	0x3e265fc4	0.16247469
214	0xc01e73df	-2.4758222
215	0xbf8c6c04	-1.0970464
216	0x3e2bd9af	0.16782258
217	0x3fb3a9e3	1.403622
218	0xbfac78e7	-1.3474396
219	0xc00a6a30	-2.1627312
220	0x3e65b9d3	0.22434168
221	0x3dd362a4	0.103215486
222	0xbe603ddb	-0.21898596
223	0x3cf8ebdb	0.030385902
224	0xbf7ccbdf	-0.9874858
225	0xbf9da81e	-1.231693
226	0x3f2f896c	0.68569064
227	0x3fe2b659	1.7711898
228	0xbf6ccea6	-0.9250282
229	0x3fe266d0	1.7687626
230	0xbdeb41de	-0.114871725
231	0x3fbb6193	1.4639152
232	0xbf6e77a5	-0.93151313
233	0x3e5a7395	0.21333154
234	0xbf87e6e4	-1.0617337
235	0x3f786cab	0.97040814
236	0xbf873cd1	-1.0565435
237	0x3d3480d5	0.044068176
238	0x3f9004f2	1.1251509
239	0xbf2cc3bd	-0.6748617
240	0xbf75e436	-0.9605135
241	0x3d8082d6	0.06274955
242	0xc0282fa6	-2.6279082
243	0xbf828fad	-1.0200096
244	0x3f9e6779	1.2375327
245	0xbf5d02f6	-0.86332643
246	0x3e2b3c7b	0.1672229
247	0xbedf3030	-0.43591452
248	0x3f415abe	0.75529087
249	0x3eb48149	0.35254887
250	0xbf6dcf87	-0.92894787
251	0xbc465d97	-0.0121072745
252	0xbf984be1	-1.1898156
253	0xbf38d21b	-0.72195596
254	0xbed76514	-0.42069304
255	0x3e52b44e	0.20576593

importance.weight f4 [2182, 1]
0	0x3e043d7d	0.12914081
1	0x3ec34253	0.3813654
2	0x3f8b688d	1.0891281
3	0x3e26c7a1	0.1628709
4	0x3f050833	0.51965636
5	0xbe618afe	-0.22025678
6	0x3fdbf6d5	1.7184702
7	0x3edc30e8	0.43006063
8	0x3faa1bc9	1.3289729
9	0x3f4b9b0e	0.7953347
10	0x3f5cfa6d	0.8631962
11	0xbfb340db	-1.4004167
12	0x3eec7995	0.4618651
13	0x40128e81	2.2899477
14	0xbf143ddd	-0.57906896
15	0xbf428815	-0.75988895
16	0x3f1454fb	0.5794217
17	0x3e067a83	0.13132672
18	0xbf70a326	-0.93998945
19	0xbf966e80	-1.1752472
20	0x3fe96bea	1.8236058
21	0xbeb6ed7b	-0.35728058
22	0xbf8535a2	-1.0406992
23	0xbfbf96fd	-1.4967953
24	0xbfd06dc7	-1.6283501
25	0xbf800ea9	-1.0004474
26	0x3f586725	0.84532386
27	0xbff11467	-1.8834351
28	0xbf577db0	-0.8417616
29	0xbec9f068	-0.39441228
30	0x3ef56ae0	0.47933102
31	0xbda41973	-0.080126666
32	0x3e929ab4	0.28633654
33	0x3ea77aed	0.32710972
34	0x40133a7e	2.300445
35	0xbf845cdd	-1.034084
36	0x3f7990b6	0.97486436
37	0x3f53c8be	0.82728183
38	0xc01dc517	-2.4651544
39	0xbf1a41d5	-0.602567
40	0xbf0792b7	-0.52958244
41	0xc009da37	-2.1539438
42	0xbf6aa299	-0.91654354
43	0xc013c3ad	-2.308818
44	0x3f364bcb	0.712094
45	0x40061be7	2.095453
46	0xbfda22c0	-1.7041855
47	0x4003575f	2.0522077
48	0xbf575ae9	-0.8412309
49	0xbfbefee2	-1.4921534
50	0x3fc581aa	1.5430195
51	0x3ea8ddd7	0.3298175
52	0xbf791e89	-0.9731222
53	0x3fd1e74c	1.6398711
54	0x3f41752e	0.75569427
55	0xbf89155d	-1.0709645
56	0xbf463e58	-0.7743888
57	0x3f2ad74a	0.66734755
58	0xbf94fa95	-1.1638972
59	0xbf84dee3	-1.038052
60	0x3f4e29f9	0.80532795
61	0xc02bd5c1	-2.6849215
62	0x400f2698	2.2367306
63	0x3fa68fec	1.3012671
64	0x3f07baa3	0.5301916
65	0x3f894465	1.0723997
66	0xbfe62800	-1.7980957
67	0xbf3ca4d5	-0.73689014
68	0xbf13d334	-0.57744145
69	0xbfb7b48c	-1.4351974
70	0x3f54eca3	0.8317358
71	0x3e149c36	0.14512715
72	0xc00d7941	-2.2105258
73	0x4014ca83	2.3248603
74	0x3c518bd3	0.012789684
75	0xc00a12a3	-2.1573875
76	0x3e24b403	0.16084294
77	0x3f17d6f4	0.5931237
78	0xbfd665c7	-1.674981
79	0xbf9efc87	-1.2420815
80	0x400be897	2.1860712
81	0x3f9d2d7f	1.2279509
82	0xbf55aa36	-0.83462846
83	0xbfa77d05	-1.3085028
84	0x40072cbb	2.1121051
85	0x3fd6fc89	1.6795818
86	0xc005f7e6	-2.0932555
87	0xbfee7cb8	-1.8631811
88	0xbfc0d188	-1.5063944
89	0x3fa9d8b5	1.3269259
90	0xbf86dfc7	-1.0537041
91	0xbf907c24	-1.1287885
92	0x3faa3c9a	1.3299744
93	0xbf3ed792	-0.74547684
94	0x3d858317	0.06519144
95	0x3fa440ae	1.2832239
96	0x3f25a521	0.6470509
97	0x40341911	2.81403
98	0xbf9d2ee9	-1.2279941
99	0xbf5cead8	-0.86295843
100	0x3f415637	0.7552218
101	0x3f0160c0	0.50538254
102	0x3f4ae176	0.79250276
103	0x3fb87658	1.4411116
104	0xbfa1b552	-1.263346
105	0xbf6070ae	-0.87671936
106	0x3f573c82	0.840767
107	0x3f6ea4be	0.93220127
108	0x4003d161	2.0596545
109	0xbf268967	-0.6505341
110	0xbfa3bb1c	-1.2791476
111	0x3fbfbf3d	1.4980236
112	0xbf83444f	-1.0255221
113	0x3f108060	0.56445885
114	0xbcf19a36	-0.029492479
115	0x3f432f02	0.76243603
116	0xbf7a73d5	-0.97832996
117	0x3f49e8ef	0.78871053
118	0xbfca9fcd	-1.5830017
119	0x3f438864	0.7637999
120	0xbe58ecaa	-0.2118403
121	0x3f13acc3	0.5768549
122	0xbffba97e	-1.96611
123	0x3f686803	0.9078371
124	0xbf793381	-0.97344214
125	0xbfb7842d	-1.4337212
126	0xbc1b8988	-0.009493239
127	0xbf552eeb	-0.83274716
128	0xbf124570	-0.57137203
129	0x3fc106ff	1.508026
130	0x3fbe447d	1.4864651
131	0x3f2927fd	0.6607664
132	0xbf0e33ca	-0.55547774
133	0x3e8eb5b2	0.27872998
134	0xbf67ad62	-0.90498936
135	0x401998a5	2.3999417
136	0xbe792949	-0.24332155
137	0x3ffcc094	1.974627
138	0xbfc1280f	-1.509035
139	0x3f6ad924	0.9173758
140	0x3e30e3ee	0.17274448
141	0x400cd4e8	2.2004948
142	0x3f8b4725	1.0881087
143	0x3ffd9434	1.9810853
144	0xbf467916	-0.7752851
145	0xbe686d19	-0.22697867
146	0x3e9e0028	0.30859494
147	0x3e967002	0.2938233
148	0x3ff32cf7	1.8998097
149	0x3f8a3aa9	1.0799152
150	0xbe37c59a	-0.17946473
151	0x3fb5c4ae	1.4200647
152	0x3f9dfc83	1.2342685
153	0x40025f51	2.0370677
154	0x3e76f85f	0.24118184
155	0x3fbe88d3	1.4885505
156	0xbf2dae20	-0.6784382
157	0xbf714250	-0.9424181
158	0xbf77db71	-0.96819216
159	0x3e312c24	0.17301995
160	0x3ea963bf	0.33083913
161	0x3f96141b	1.1724886
162	0xbeedaf3c	-0.46422756
163	0xbe8f64c4	-0.28006566
164	0xc00b548c	-2.1770353
165	0x3f84bc97	1.0370053
166	0x3ea10a1a	0.3145302
167	0xbe77daa9	-0.24204506
168	0xbe8fcbc2	-0.28085142
169	0x3f109732	0.56480706
170	0x3f61c5fe	0.8819274
171	0x3f276057	0.6538138
172	0xbfafc9d1	-1.3733464
173	0xbf66446c	-0.89948153
174	0x4022fdae	2.5467334
175	0xc00859ce	-2.1304812
176	0x3f7a12d6	0.9768499
177	0xbf785605	-0.97006255
178	0xbef6c96e	-0.48200554
179	0xbe749361	-0.23884346
180	0x3f352110	0.70753574
181	0xbf95400d	-1.1660172
182	0x3e23c142	0.15991691
183	0x3fcfeb3d	1.6243664
184	0xbef8b90b	-0.48578677
185	0x3f0cb9f6	0.54971254
186	0xbf68a082	-0.90869915
187	0x3fd4cf43	1.6625751
188	0xbf2e84cf	-0.681714
189	0xbfd515ca	-1.6647274
190	0x3f0e05b7	0.5547747
191	0x3fa87067	1.3159302
192	0xbf2de4af	-0.6792707
193	0x3eaf0514	0.34183562
194	0xbf1f9514	-0.6233685
195	0xbf1590ef	-0.58424276
196	0x3f4639f6	0.7743219
197	0x3e5390c3	0.20660691
198	0x3f135115	0.57545596
199	0x3e217ed4	0.15771037
200	0x3f50c6c4	0.8155329
201	0x3fc82e16	1.5639064
202	0xbf177a1d	-0.59170705
203	0xbf585960	-0.84511375
204	0xbf4695ec	-0.7757251
205	0xbfb293d1	-1.395136
206	0xbec36f6a	-0.3817094
207	0x3f2bf75a	0.67174304
208	0xbf8fd4f4	-1.1236863
209	0x3fc3e385	1.5303808
210	0x40164101	2.3477175
211	0x3fc4e48f	1.538225
212	0x3eada6c5	0.33916298
213	0xbf632b28	-0.88737726
214	0x3f305580	0.6888046
215	0xbeaf5db8	-0.3425119
216	0x3f1357b3	0.57555693
217	0x4007413b	2.1133564
218	0x3ee37d22	0.44431406
219	0xbf3d0c90	-0.73847294
220	0x3e584ecd	0.2112381
221	0xbf27e139	-0.6557804
222	0xbd9405ca	-0.07227667
223	0xbf915add	-1.1355854
224	0xbf0bce60	-0.5461178
225	0x3fb03b38	1.3768072
226	0xbe87d0a9	-0.26526383
227	0xbe8965b7	-0.26835415
228	0xbb556f9b	-0.0032567743
229	0xbf8e997d	-1.1140591
230	0x3fd58045	1.667977
231	0x3fce5a27	1.6121262
232	0x3f3b1899	0.7308441
233	0x3e8b12f6	0.27162904
234	0xbec9f4f7	-0.39444706
235	0x3f0be9a9	0.5465341
236	0xbfabb75f	-1.3415335
237	0xbeec3d75	-0.46140638
238	0xbfb7132d	-1.4302727
239	0x3f5e8847	0.8692669
240	0x3f366c5b	0.7125909
241	0xc00f78c0	-2.241745
242	0x3e615f2c	0.22008961
243	0x3e2b13f9	0.16706838
244	0xbe0a897f	-0.13529013
245	0x3fb678ff	1.4255675
246	0xbc9ab818	-0.01888661
247	0xbfb8350a	-1.4391186
248	0x3e9eea0d	0.31037942
249	0x3f8a31a2	1.0796397
250	0x3f9402c6	1.1563346
251	0xbf1c1a29	-0.6097742
252	0x3e3ad92b	0.18246906
253	0xbe9932eb	-0.2992166
254	0xbb84dd92	-0.0040547336
255	0xbf6132c3	-0.8796808

mlp.0.weight f4 [64, 32]
0	0xbe7b1b96	-0.24522242
1	0x3e42a240	0.19007206
2	0x3d37dd60	0.044888854
3	0x3e1530c0	0.14569378
4	0x3e68ab8f	0.22721694
5	0x3d6f4686	0.058416866
6	0xbe3b8fde	-0.183166
7	0xbe50ea3c	-0.20401853
8	0x3e5e6672	0.21718767
9	0xbe5bc336	-0.21461186
10	0xbd0eb619	-0.03484163
11	0x3e8c9d70	0.27463865
12	0xbcf638b5	-0.030056337
13	0x3e42b0b8	0.19012725
14	0xbe0fbb51	-0.140363
15	0xbd333988	-0.043756038
16	0xbe25ba80	-0.16184425
17	0x3dd5091e	0.104021296
18	0xbdb7dd10	-0.08977711
19	0xbdc24707	-0.09486204
20	0xbe821e74	-0.2541386
21	0xbcf9dcfa	-0.030500878
22	0x3cf101bd	0.029419774
23	0x3dba94ae	0.0911039
24	0xbe9484ed	-0.29007664
25	0x3d44b394	0.04802282
26	0xbe270d64	-0.16313702
27	0x3ddfd111	0.10928548
28	0xbccbb63a	-0.024867166
29	0xbc7136e4	-0.01472256
30	0xbcd58ad2	-0.026067171
31	0x3dc270c3	0.09494164
32	0x3dfe3624	0.1241267
33	0xbdae061d	-0.0849726
34	0xbe17135d	-0.1475348
35	0xbe58cd84	-0.21172148
36	0xbd466678	-0.048437566
37	0x3da18d7b	0.078883134
38	0x3d66e345	0.056369085
39	0x3d83c6a6	0.064343736
40	0x3c85b7bc	0.016322963
41	0x3df0b2e3	0.1175287
42	0xbde32641	-0.11091281
43	0xbe3940db	-0.18091147
44	0x3d261e02	0.04055596
45	0x3d7fe7e1	0.062476996
46	0xbe4c21d2	-0.19934776
47	0xbe4963dd	-0.19667001
48	0x3dfb6868	0.12275773
49	0xbd6e5f0b	-0.05819611
50	0x3d596c80	0.05308199
51	0xbe6cb71f	-0.2311673
52	0xbd6017e2	-0.054710276
53	0xbe0388e7	-0.12845193
54	0x3da9bf92	0.08288492
55	0x3ebfdd32	0.37473446
56	0x3e5fa6e3	0.21841006
57	0x3e2af653	0.16695528
58	0xbdc4adc9	-0.096034594
59	0x3e45f0a9	0.19330086
60	0xbe2cc5e3	-0.16872363
61	0x3dae73cf	0.085181825
62	0xbd1c89d1	-0.03821737
63	0xbdbd3069	-0.09237749
64	0xbe3fdd95	-0.1873687
65	0x3df29d77	0.1184644
66	0xbe64ba96	-0.22336802
67	0x3e94e9ff	0.29084775
68	0x3e0b0f8e	0.13580152
69	0x3d8e4536	0.06946795
70	0xbd2a8acc	-0.041636273
71	0x3df105ad	0.11768661
72	0x3e58ca4d	0.21170922
73	0x3dc6123c	0.09671447
74	0xbd884cff	-0.06655311
75	0xbe0c346d	-0.13691874
76	0xbdf6150e	-0.120157346
77	0xbe336f16	-0.17522845
78	0xbe671f8e	-0.22570631
79	0xbe8d3da9	-0.27586105
80	0x3c1aee63	0.00945625
81	0x3e13b65f	0.14425038
82	0x3d19ee38	0.0375807
83	0xbaa6e8ca	-0.0012734171
84	0xbd0e8939	-0.034798834
85	0x3dc936ac	0.09824881
86	0x3de861f7	0.1134681
87	0xbc8df63f	-0.017329333
88	0xbb25a086	-0.0025272681
89	0xbe3532c0	-0.17695141
90	0xbe47705f	-0.1947646
91	0xbdc6045f	-0.096688025
92	0xbded0642	-0.11573459
93	0x3d3f3e69	0.04669038
94	0xbdda7c8b	-0.10668286
95	0x3e12ef42	0.14349082
96	0x3e2169d8	0.15763032
97	0x3e98d9f6	0.2985379
98	0xbeb91843	-0.36151323
99	0x3e89e2bf	0.26930806
100	0x3e844df4	0.25840724
101	0x3ce1d199	0.027565764
102	0x3ddb8305	0.10718349
103	0x3ddf4442	0.10901691
104	0x3df228bf	0.11824178
105	0x3b9bead6	0.0047582192
106	0x3d1acc8e	0.037792735
107	0x3d8920cd	0.066957094
108	0x3c41bc29	0.011824646
109	0xbe51a397	-0.20472561
110	0xbe2f870b	-0.17141359
111	0xbdba8509	-0.09107406
112	0xbe6c1cf1	-0.23057915
113	0x3e1724d6	0.14760146
114	0x3dbb0669	0.09132082
115	0xbd03512e	-0.03205984
116	0x3e3b18a0	0.18271112
117	0x3e106e1c	0.14104503
118	0x3d53b4bd	0.051686037
119	0xbe12dc21	-0.14341785
120	0xbe9cd49d	-0.3063096
121	0xbc327de7	-0.010894275
122	0xbe2e987c	-0.17050356
123	0xbceba3ec	-0.028764687
124	0x3d9fd637	0.0780453
125	0x3e9040f6	0.2817456
126	0xbe69b8dd	-0.22824426
127	0xbe2f9a19	-0.17148627
128	0x3b8adcfb	0.0042377687
129	0x3ce6ed53	0.028189337
130	0x3e847876	0.25873154
131	0xbee0f515	-0.43936983
132	0xbe1ebd86	-0.15501985
133	0xbd3934e3	-0.045216452
134	0x3dd54e09	0.10415275
135	0xbd336923	-0.043801438
136	0xbe7cb7b3	-0.2467945
137	0xbe8cf043	-0.27527055
138	0x3d650f56	0.05592283
139	0x3e55946b	0.20857398
140	0x3e479501	0.19490434
141	0x3e5fedfe	0.2186813
142	0xbe17ef99	-0.14837493
143	0x3d7f1144	0.062272325
144	0x3e6d2234	0.23157579
145	0xbd82f380	-0.063941
146	0xbdd6374a	-0.10459764
147	0x3e1af236	0.15131459
148	0xbd46a418	-0.048496336
149	0xbe5c1376	-0.21491799
150	0x3b247355	0.0025093157
151	0xbe39740b	-0.18110673
152	0xbe1ffd29	-0.15623917
153	0xbe6d2785	-0.23159607
154	0x3e8b8a93	0.2725416
155	0x3dc4f59f	0.09617161
156	0x3ce0f194	0.027458943
157	0xbdabd6a2	-0.08390547
158	0x3e76cc3a	0.24101344
159	0x3d839c15	0.06426255
160	0x3d7829a2	0.06058658
161	0x3df8117b	0.12112709
162	0x3d362ac3	0.044474375
163	0x3ce24852	0.027622376
164	0x3d9fbd5c	0.07799789
165	0xbe3deb67	-0.1854683
166	0x3d82f278	0.063939035
167	0xbe1bdb93	-0.1522048
168	0x3e40c278	0.18824184
169	0xbde16f7c	-0.11007592
170	0x3d7f17da	0.062278606
171	0x3e3e2d53	0.18571977
172	0x3d8f6b10	0.070028424
173	0xbb85f648	-0.004088197
174	0xbe2f36ef	-0.17110799
175	0xbe892c63	-0.26791677
176	0x3e2fd159	0.17169704
177	0x3d9f7bd0	0.07787287
178	0x3e59985b	0.21249525
179	0x3d5ebba3	0.054378163
180	0xbdf295ee	-0.11845003
181	0x3da23bbd	0.079215504
182	0x3d7bb33e	0.061450236
183	0xbd0230ed	-0.03178494
184	0x3bb5a1d4	0.005542973
185	0xbe17e14c	-0.14832038
186	0xbc87fda8	-0.016600445
187	0x3bf31193	0.0074178665
188	0x3e35877e	0.17727467
189	0xbbc0bad6	-0.0058816476
190	0xbde2aa58	-0.11067647
191	0x3c8c136c	0.017099105
192	0xbcc8af7f	-0.024497746
193	0x3df5ace6	0.119958684
194	0xbe3b867c	-0.1831302
195	0xbe1c8131	-0.15283658
196	0x3e538c8b	0.20659082
197	0xbe97a208	-0.29615808
198	0xbe3cd8e3	-0.1844211
199	0x3e6cd84a	0.23129383
200	0x3d0c2460	0.034214377
201	0x3e0ab5d7	0.13545929
202	0xbd269c4d	-0.040676404
203	0x3d9066fe	0.07050894
204	0x3d7a46ed	0.061102796
205	0x3e0802ba	0.1328229
206	0xbc36c81f	-0.011156111
207	0x3dfd4320	0.12366319
208	0xbded2978	-0.11580175
209	0x3edead3c	0.43491542
210	0xbd88d443	-0.06681111
211	0x3c117650	0.008878306
212	0x3ce7809e	0.028259572
213	0x3dd47e39	0.103756376
214	0xbe214fc5	-0.15753086
215	0x3d62be69	0.05535737
216	0xbe8679d4	-0.26264822
217	0x3e60c257	0.21949135
218	0xbdefe981	-0.11714459
219	0x3e3bdbd8	0.18345582
220	0x3e7f7110	0.24945474
221	0x3e828166	0.25489348
222	0x3d81a416	0.06330125
223	0xbd7d646c	-0.061863348
224	0x3b3980e3	0.0028305582
225	0x3dc190d0	0.09451449
226	0x3e751fff	0.23937987
227	0xbe04c881	-0.12967111
228	0xbc172ada	-0.009226525
229	0x3e83a01d	0.25708094
230	0x3e64ca39	0.22342767
231	0x3df7cf97	0.121001415
232	0xbc1ed1b5	-0.009693553
233	0xbe233a40	-0.1594019
234	0xbc902775	-0.01759694
235	0xbd16615a	-0.036713935
236	0x3c836c34	0.016042806
237	0x3e091f18	0.13390768
238	0x3e4a2554	0.19740802
239	0x3e267b3a	0.16257945
240	0xbdacf089	-0.08444316
241	0xbe5b33c1	-0.21406461
242	0xbd9a36c6	-0.075299785
243	0x3e6e355e	0.23262545
244	0xbc5a17c5	-0.013311331
245	0xbd9f72a3	-0.07785537
246	0x3d4045bb	0.0469415
247	0x3e190316	0.14942583
248	0x3f0dab43	0.5533945
249	0xbdde9955	-0.108690895
250	0xbd351ebe	-0.04421877
251	0xbdb7b648	-0.08970314
252	0x3d40d082	0.04707385
253	0xbedc3656	-0.43010205
254	0x3e7a2f17	0.24432026
255	0xbea0333c	-0.3128909

mlp.0.bias f4 [64]
0	0x3ea716a3	0.32634458
1	0x3e1462c0	0.14490795
2	0x3e56dc21	0.2098241
3	0xbcbf35e5	-0.023341129
4	0x3c098725	0.008394037
5	0x3eb53be7	0.35397264
6	0x3d6eddb6	0.05831691
7	0x3d9478a3	0.07249572
8	0xbb75c1de	-0.0037499587
9	0x3ec9c2b2	0.39406353
10	0xbe504a65	-0.2034088
11	0x3e2c1c82	0.1680775
12	0x3e9b9768	0.3038895
13	0x3e15d434	0.1463173
14	0xbdb4654c	-0.08808383
15	0x3e22e6ec	0.15908402
16	0x3d36e525	0.044652123
17	0x3e74ad89	0.23894323
18	0x3e789a9e	0.24277732
19	0x3e29ca39	0.16581048
20	0xbd7f46f4	-0.062323526
21	0xbf16b888	-0.5887532
22	0x3e0ade13	0.13561277
23	0xbe1255d6	-0.14290556
24	0xbdd89e8e	-0.10577117
25	0xbe16bb5b	-0.14719908
26	0x3e0544a8	0.13014472
27	0x3e34b40c	0.17646807
28	0x3e9681cb	0.293959
29	0xbd90d1ec	-0.070712894
30	0x3ef2c334	0.47414553
31	0x3e595a31	0.21225812
32	0x3d240b25	0.04004969
33	0xbe8395d5	-0.2570025
34	0x3e1d87d3	0.15383844
35	0xbee55e03	-0.44798288
36	0x3e66ad2f	0.22527002
37	0xbe11ea1e	-0.14249465
38	0xbe09ade6	-0.13445243
39	0x3eccbff2	0.39990193
40	0x3eda25fb	0.42607102
41	0x3d0bc0b5	0.034119327
42	0xbc7583eb	-0.014985065
43	0x3e93e122	0.288827
44	0x3ecb27c2	0.3967877
45	0x3e028f35	0.12749942
46	0xbea2229c	-0.3166703
47	0x3d696d8f	0.05698925
48	0xbe5277bb	-0.20553486
49	0x3e35bfe0	0.17748976
50	0xbdc7ec60	-0.09761882
51	0xbea238fb	-0.31684098
52	0x3decf007	0.11569219
53	0x3eb0f33e	0.3456058
54	0xbe25885a	-0.16165295
55	0x3e24b1f4	0.16083509
56	0x3e16f1df	0.14740704
57	0x3e9b1905	0.30292526
58	0xbc44c6d0	-0.012010291
59	0xbd749603	-0.059713375
60	0x3d88683d	0.06660507
61	0x3d89c132	0.06726302
62	0xbe388b98	-0.18022001
63	0xbe75f07c	-0.24017519

mlp.2.weight f4 [1, 64]
0	0xbe574007	-0.21020518
1	0xbe74047b	-0.23829834
2	0xbe1876e9	-0.1488911
3	0xbe77f605	-0.24214943
4	0xbe5e3ca4	-0.2170282
5	0xbe48db4e	-0.19614908
6	0x3e6d264b	0.23159139
7	0x3e5ef4d2	0.21773079
8	0x3ea6d835	0.32586828
9	0xbe11b8f7	-0.14230715
10	0xbe927cc3	-0.2861081
11	0xbe587f02	-0.211422
12	0xbe90ad4e	-0.2825722
13	0xbe92473e	-0.28569978
14	0x3e2d3e18	0.16918218
15	0x3e0c36dc	0.13692802
16	0xbe2b8b44	-0.16752344
17	0x3ebb7aa0	0.36616993
18	0xbe166f84	-0.14690977
19	0xbe3504f0	-0.17677665
20	0xbdfcf584	-0.12351516
21	0xbae79d78	-0.0017670831
22	0x3e89769a	0.26848298
23	0x3e643ded	0.22289248
24	0xbe45ded8	-0.1932329
25	0x3ecbf2a4	0.39833558
26	0x3e40fc77	0.18846308
27	0xbe870ea0	-0.26378345
28	0xbe04a258	-0.12952554
29	0x3e9870c2	0.29773527
30	0x3ea7be60	0.32762432
31	0x3e9aa2f4	0.30202448
32	0x3ea29034	0.31750643
33	0x3de9ed3d	0.11422203
34	0x3e4a50bc	0.1975736
35	0x3e0d1a48	0.13779557
36	0xbe8908cd	-0.26764527
37	0x3e18d0b9	0.14923371
38	0x3e5e2ec1	0.21697523
39	0xbe1f7536	-0.15572056
40	0x3e809a92	0.25117928
41	0x3ea70966	0.32624358
42	0xbd7900db	-0.06079183
43	0xbe0c8187	-0.13721286
44	0xbe32eea9	-0.17473854
45	0xbddef557	-0.108866386
46	0x3e174085	0.14770706
47	0x3e7af8f1	0.24509026
48	0xbe192267	-0.1495453
49	0xbe3d6db4	-0.1849888
50	0x3d608060	0.054809928
51	0xbdece805	-0.11567692
52	0xbdc12e77	-0.094326906
53	0x3ec9d640	0.39421272
54	0xbe096aba	-0.13419619
55	0x3e3d6b63	0.18497996
56	0x3e6f6acc	0.23380584
57	0xbe728bf9	-0.23686208
58	0x3e533dc8	0.20629036
59	0x3eaebc7a	0.3412817
60	0x3e06878a	0.13137642
61	0xbe6996c4	-0.22811419
62	0x3e0373cf	0.12837146
63	0xbeb44fd0	-0.35217142
