tag_model.pt (torch, 297581 bytes, 5 tensors)

embedding.weight f4 [2165, 32]
-0.9244567 1.6468208 0.31117368 0.45729035 -0.7790683 0.7243998 -0.08341675 -0.5634199
0.3124027 0.7147498 0.24781567 0.555433 -0.2276282 0.12585081 0.16599949 -2.5369718
-0.6618828 0.39778697 1.1510472 -0.7001784 0.07443344 -1.3861687 0.331353 0.23930943
-1.9145365 2.2401996 -0.4999247 1.4900501 -0.5962269 -0.69057494 0.39875183 -1.8131058
-2.605036 0.5489696 -1.4905432 -0.69896173 0.24546002 0.9322405 -2.0305572 -0.60364515
0.5223234 -1.9340167 1.7023616 -0.2189349 0.21057077 0.29098314 -1.8565493 -0.30259365
-0.9644097 -0.53896964 1.9512374 1.2427814 0.768296 0.79871476 -1.0794619 0.8714677
-1.0581154 2.6049223 -1.3973913 1.9671601 -0.9466252 -0.6013466 0.15345918 -0.16196829
-0.7736211 -0.62253195 -0.34328222 0.45196065 0.36496252 0.1773289 0.9431239 -0.37029052
1.2062752 -0.4555335 -1.5177172 -0.47020894 -0.07770818 0.11946355 1.323453 -2.2307029
-0.44984838 1.1618967 0.5894635 1.2979711 -1.4354169 -0.74050087 0.997424 0.5472386
-0.73424613 -1.6802022 1.2859492 -0.5419129 3.4231455 -1.3340142 -2.796847 -0.6660373
-0.86484504 -0.2799891 -0.93010557 -1.5989524 -1.389941 -0.3195842 1.2479407 -0.7227374
-0.23481372 -0.75637114 0.008762243 0.75584924 1.8023922 -0.7332584 -0.13561754 0.80802476
0.26875815 -0.1469391 -0.19018051 -0.82045865 1.3752433 -0.7493939 -0.30743447 0.2892775
-0.95835 0.17058006 0.8746366 -0.27116874 0.32480565 1.7823087 -0.21687232 -0.04047013
1.7009335 1.4341556 0.57018185 0.87230045 0.10452645 -0.36023805 1.5415272 0.53638667
-1.2972398 1.2246017 0.2787989 1.8884957 -0.6096554 0.570638 -1.5915158 0.08730775
-0.1979686 0.34756348 -0.25106335 0.21089675 -1.1418895 -1.223604 1.883366 0.57223666
-1.246717 1.4037355 0.4918784 0.09752802 -2.699083 0.20592803 -1.2250289 -0.1998083
-0.58186275 0.6107887 0.045304872 -0.8767905 -0.646128 -1.317378 1.5241661 -0.9641676
-2.4402456 -0.6209558 -1.7833228 0.16708498 2.0773137 2.138351 0.84152824 -0.22930521
0.8176854 -0.98840207 1.4623559 0.6640525 -0.9668248 -1.3785726 1.2578232 -0.7902866
0.37361893 -0.6443576 -0.48060083 1.7223876 2.1432724 -1.8685142 1.5562109 1.0763426
-0.11827682 -1.0933393 -1.4728616 -1.025066 1.3340862 1.6070508 0.5826439 -1.7959856
1.8783153 -0.6113108 -0.43910426 0.7934053 -1.5472687 1.0136875 1.0339129 -0.5503418
-0.43459064 -0.1262141 0.26537374 -0.7235389 1.1118205 -2.7096624 1.0085971 1.3003879
0.6443949 -0.51812756 0.7932355 -2.0444124 -0.04471876 -0.7166725 0.8830869 -0.8462174
-0.11880496 -0.91681564 0.60540754 -1.0002214 -0.623398 -0.03049659 -2.0827775 -0.20517457
-0.42181498 0.55956155 -1.4252664 -0.09605245 -0.47778913 0.45378667 -0.70356476 -1.9137619
-0.15805572 0.5954279 -1.0691644 0.8136366 -0.010597877 -0.8037735 -1.5354749 0.42895204
-0.57343775 0.9413174 0.16727139 -0.09790598 -0.22820604 0.35358724 -1.240921 1.0598404
00000000: 32a9 6cbf 06cb d23f 2852 9f3e f621 ea3e
00000010: 0571 47bf 4472 393f 67d6 aabd 493c 10bf
00000020: 3ff3 9f3e d8f9 363f 64c3 7d3e db30 0e3f
00000030: 5e17 69be 09df 003e c5fb 293e bf5d 22c0
00000040: 2771 29bf bcaa cb3e 8455 933f e43e 33bf
00000050: 8f70 983d fa6d b1bf 1aa7 a93e 880d 753e
00000060: 880f f5bf 6e5f 0f40 21f6 ffbe f6b9 be3f
00000070: 53a2 18bf 85c9 30bf 3329 cc3e da13 e8bf
00000080: e9b8 26c0 4689 0c3f 1fca bebf 28ef 32bf
00000090: df59 7b3e 50a7 6e3f a6f4 01c0 7d88 1abf
000000a0: fdb6 053f dc8d f7bf fce6 d93f 7830 60be
000000b0: dd9f 573e befb 943e 68a3 edbf 8eed 9abe
000000c0: 8ee3 76bf eaf9 09bf 26c2 f93f 7613 9f3f
000000d0: 0caf 443f 9278 4c3f cf2b 8abf 8218 5f3f
000000e0: 5370 87bf 0cb7 2640 b8dd b2bf e7cb fb3f
000000f0: 0756 72bf daf1 19bf 6724 1d3e 04db 25be
00000100: 080c 46bf 415e 1fbf b0c2 afbe 6367 e73e
00000110: 5edc ba3e b595 353e 9170 713f b896 bdbe
00000120: 3a67 9a3f b03b e9be 8f44 c2bf 3abf f0be
00000130: 7725 9fbd 4ea9 f43d e866 a93f d6c3 0ec0
00000140: 8752 e6be 08b9 943f 14e7 163f eb23 a63f
00000150: bebb b7bf 7791 3dbf 2e57 7f3f d417 0c3f
00000160: 8ef7 3bbf de10 d7bf fc99 a43f ceba 0abf
00000170: d114 5b40 fac0 aabf 8bff 32c0 6c81 2abf
00000180: 7c66 5dbf bb5a 8fbe 661b 6ebf 79aa ccbf
00000190: 96e9 b1bf 8aa0 a3be 85bc 9f3f 5105 39bf
000001a0: 0273 70be 8aa1 41bf 838f 0f3c 567f 413f
000001b0: cab4 e63f d3b6 3bbf 53df 0abe b6da 4e3f
000001c0: ab9a 893e 3477 16be aebe 42be 9409 52bf
000001d0: f907 b03f 47d8 3fbf 0d68 9dbe 2e1c 943e
000001e0: 6d56 75bf 8aac 2e3e 2fe8 5f3f a1d6 8abe
000001f0: ed4c a63e b122 e43f c713 5ebe 02c4 25bd
00000200: 30b8 d93f 6992 b73f 70f7 113f 154f 5f3f
00000210: f711 d63d 1f71 b8be c350 c53f a350 093f
00000220: f40b a6bf c0bf 9c3f bbbe 8e3e 3aba f13f
00000230: 6012 1cbf 5515 123f cab6 cbbf 68ce b23d
00000240: 48b8 4abe d7f3 b13e 608b 80be 51f5 573e
00000250: 6f29 92bf 0e9f 9cbf 2312 f13f 1a7e 123f
00000260: 6c94 9fbf 9bad b33f 7cd7 fb3e c5bc c73d
00000270: c7bd 2cc0 ccde 523e bfcd 9cbf 8c9a 4cbe
00000280: f5f4 14bf a65c 1c3f 9a91 393d 5875 60bf
00000290: a568 25bf d89f a8bf e017 c33f b0d3 76bf
000002a0: fc2c 1cc0 f6f6 1ebf ec43 e4bf 5318 2b3e
000002b0: b5f2 0440 beda 0840 656e 573f fcce 6abe
000002c0: d553 513f eb07 7dbf 7a2e bb3f 58ff 293f
000002d0: d581 77bf 1175 b0bf 5a00 a13f 3950 4abf
000002e0: fb4a bf3e 9ff4 24bf 5011 f6be 3277 dc3f
000002f0: 602b 0940 792b efbf eb31 c73f 98c5 893f
00000300: 1e3b f2bd 8bf2 8bbf bb86 bcbf 5d35 83bf
00000310: 56c3 aa3f d7b3 cd3f 2728 153f dbe2 e5bf
00000320: a36c f03f dd7e 1cbf 46d2 e0be 9c1c 4b3f
00000330: e70c c6bf 83c0 813f 4257 843f 33e3 0cbf
00000340: aa82 debe 453e 01be 11df 873e d839 39bf
00000350: 2250 8e3f 1c6b 2dc0 b619 813f 1c73 a63f
00000360: 10f7 243f 02a4 04bf 7b11 4b3f a7d7 02c0
00000370: 052b 37bd d977 37bf fc11 623f b4a1 58bf
00000380: 0450 f3bd 6eb4 6abf fdfb 1a3f 4107 80bf
00000390: 0397 1fbf fcd3 f9bc 3a4c 05c0 4819 52be
000003a0: 22f8 d7be 6d3f 0f3f 216f b6bf 26b7 c4bd
000003b0: c7a0 f4be ba56 e83e d21c 34bf 26f6 f4bf
000003c0: 5cd9 21be f66d 183f 61da 88bf 7d4a 503f
000003d0: b8a2 2dbc 1ac4 4dbf 718a c4bf 9a9f db3e
000003e0: d1cc 12bf 2dfa 703f 3149 2b3e ee82 c8bd
000003f0: d8ae 69be 6309 b53e 80d6 9ebf daa8 873f

importance.weight f4 [2165, 1]
0.29496378 0.10147709 -0.13306017 0.85130996 -0.119352356 1.621534 -0.2961153 0.9527368
-1.1458269 -0.31287956 0.71256423 0.57373863 -1.0503227 -1.0134425 -2.1218176 -1.0909032
0.4142053 -0.7382098 0.43755147 -0.5072091 0.49629548 -1.0002365 -0.31457368 0.92986906
-0.77037007 0.2106842 -0.16853617 0.28802162 0.3097521 0.48180538 0.8686249 -0.74069166
-0.147488 0.20049115 0.26599973 -0.64188987 -0.23834711 -1.9991989 1.1839058 1.0549561
0.269931 1.0451335 0.40521377 0.050233882 0.26119104 -0.7066398 -2.018519 0.042221624
-0.64596844 -1.0617727 -0.39728785 -1.5238119 -1.5680313 -0.2218764 0.38614503 -0.7940193
-0.7046409 0.4074596 -0.5651593 0.27746296 -1.4976801 0.22278433 -0.36755797 -2.1902854
-0.75807893 0.7877971 0.8369896 1.4282233 -0.81035906 0.31050193 -1.2542331 -1.3540484
-0.48573834 0.72066987 -0.17980622 0.27040362 2.0678835 -0.16739686 0.19886237 -0.035829403
0.8225016 -0.0131736025 0.45934007 -0.5003631 1.3326763 -1.1460829 -0.41961718 0.5402666
-2.0476022 -0.113908224 -0.69752073 1.195859 -0.06382963 -0.6066431 -0.5688585 -1.8332651
0.2036919 -0.8460341 -0.40265474 -0.09325916 0.1690389 -0.18348281 1.3847952 -0.2765242
-0.5049809 0.7815533 -0.59107804 0.26947024 0.4805301 1.5750738 0.34076124 -0.12913775
0.20459622 -0.04977941 -0.60592663 0.33912188 -0.521269 -1.184877 -0.37274507 -0.91891384
0.117982164 -2.1367304 1.4621073 -0.027942888 0.42588496 -0.6113516 -1.0378958 0.1689971
0.13873842 0.5007606 -0.21707977 0.36682373 0.994381 -1.2967759 -1.1431682 1.0848124
-0.770641 1.0042769 0.1691081 0.27690127 1.2363404 0.5751178 -0.16645181 0.5899636
1.9582442 1.1098444 0.6399777 0.19168937 -0.20201826 -0.08502284 0.26839253 -0.5564695
0.043580335 0.55205846 0.45091683 1.0237596 0.22264954 2.4947345 0.5773949 0.6061231
0.61179817 -1.3843203 0.14595678 0.47018287 0.48031446 -0.27778366 -1.1797326 0.23911028
0.2753123 0.8030274 0.62284666 1.0393791 -0.14837977 0.3499859 -0.11301774 -0.17091008
1.1044618 -0.33007216 0.7136042 2.0192165 1.2712822 1.0292062 0.56326103 1.0934448
1.443 -0.93526477 0.5537801 -0.9582897 0.20647155 0.6576335 0.06686951 -1.0779407
-0.592947 -0.08194788 -1.2637116 0.54120857 0.8000024 -0.33920783 0.8690067 -0.42958975
1.0456328 -0.61569995 0.81203544 -1.3560154 0.07888072 -0.45358208 -1.5416409 0.87276703
2.5150309 1.9247488 -0.68622893 1.7212803 0.76424205 1.8163086 -0.8936049 -2.3389866
-0.20852593 -1.8905985 -0.597922 -0.23749816 0.10848371 -2.0180805 0.15508913 -0.9139055
0.774611 0.47847357 0.19825257 1.3308411 -0.34816116 0.69360846 0.9288143 -1.361597
0.71149844 1.0743821 1.199727 -0.32754713 -0.72981906 -1.1493671 -1.7471232 -0.86675256
0.14356858 0.59724516 0.3566853 1.291964 -0.19774123 0.6645451 0.60772383 -0.48740762
1.2907013 -0.029135814 0.66752946 1.5900952 -0.19615677 -2.1737525 -0.06595816 0.2858429
00000000: 7e05 973e 38d3 cf3d ed40 08be 73ef 593f
00000010: 026f f4bd 6d8e cf3f 6d9c 97be 8fe6 733f
00000020: 75aa 92bf c031 a0be 9c6a 363f 89e0 123f
00000030: f970 86bf 7cb8 81bf dccb 07c0 b7a2 8bbf
00000040: b812 d43e 51fb 3cbf bf06 e03e 75d8 01bf
00000050: 711a fe3e c007 80bf cd0f a1be e60b 6e3f
00000060: f936 45bf 99bd 573e bf94 2cbe 9277 933e
00000070: d497 9e3e 32af f63e 345e 5e3f f89d 3dbf
00000080: 1807 17be 8d4d 4d3e 1e31 883e e552 24bf
00000090: 4411 74be c0e5 ffbf 3a8a 973f cd08 873f
000000a0: 6534 8a3e efc6 853f 2e78 cf3e 0bc2 4d3d
000000b0: d5ba 853e 59e6 34bf 6a2f 01c0 95f0 2c3d
000000c0: 305e 25bf 2be8 87bf 5069 cbbe 450c c3bf
000000d0: 40b5 c8bf 9133 63be cdb4 c53e d944 4bbf
000000e0: 5963 34bf 8b9e d03e 48ae 10bf a00f 8e3e
000000f0: fbb3 bfbf 9321 643e 8f30 bcbe a32d 0cc0
00000100: 7611 42bf 12ad 493f f344 563f 05d0 b63f
00000110: b173 4fbf 1cfa 9e3e b68a a0bf 7551 adbf
00000120: b2b2 f8be d27d 383f 1f1f 38be 5872 8a3e
00000130: 3458 0440 156a 2bbe 94a2 4b3e dac1 12bd
00000140: 778f 523f 18d6 57bc 9f2e eb3e cc17 00bf
00000150: 2395 aa3f d8b2 92bf 10d8 d6be e94e 0a3f
00000160: ea0b 03c0 b748 e9bd b890 32bf e811 993f
00000170: 1cb9 82bd f64c 1bbf b6a0 11bf 6ea8 eabf
00000180: 9c94 503e b195 58bf c328 cebe a9fe bebd
00000190: 8918 2d3e ebe2 3bbe f840 b13f 9494 8dbe
000001a0: 6e46 01bf e113 483f e450 17bf 01f8 893e
000001b0: 0b08 f63e 059c c93f 4278 ae3e b03c 04be
000001c0: ac81 513e 7fe5 4bbd 021e 1bbf 62a1 ad3e
000001d0: e371 05bf 0daa 97bf 71d8 bebe f03d 6bbf
000001e0: a2a0 f13d 31c0 08c0 5526 bb3f 7ce8 e4bc
000001f0: 980d da3e 8a81 1cbf c5d9 84bf 930d 2d3e
00000200: 7211 0e3e d931 003f 294a 5ebe 52d0 bb3e
00000210: c18f 7e3f c1fc a5bf 5653 92bf 22db 8a3f
00000220: bb48 45bf 258c 803f ac2a 2d3e 01c6 8d3e
00000230: 6740 9e3f ec3a 133f 5872 2abe db07 173f
00000240: bfa7 fa3f 620f 8e3f 94d5 233f 384a 443e
00000250: e0dd 4ebe 7420 aebd bf6a 893e c974 0ebf
00000260: 4b81 323d b453 0d3f 92de e63e 8e0a 833f
00000270: 3efe 633e bba9 1f40 27d0 133f e22a 1b3f
00000280: ce9e 1c3f 6831 b1bf b275 153e cfbb f03e
00000290: c7eb f53e a939 8ebe 7a01 97bf 53d9 743e
000002a0: bcf5 8c3e 3493 4d3f e172 1f3f 600a 853f
000002b0: def0 17be 5a31 b33e d875 e7bd 0d03 2fbe
000002c0: 015f 8d3f 38ff a8be c4ae 363f d83a 0140
000002d0: 60b9 a23f 07bd 833f e031 103f 00f6 8b3f
000002e0: 39b4 b83f 836d 6fbf 88c4 0d3f 7952 75bf
000002f0: 476d 533e ab5a 283f e2f2 883d f6f9 89bf
00000300: 60cb 17bf 4ad4 a7bd 4dc1 a1bf a58c 0a3f
00000310: f5cc 4c3f a6ac adbe 3977 5e3f 30f3 dbbe
00000320: 4cd7 853f 839e 1dbf 8ee1 4f3f ea91 adbf
00000330: 378c a13d e93b e8be 7d54 c5bf a96d 5f3f
00000340: 44f6 2040 2b5e f63f b3ac 2fbf ea52 dc3f
00000350: 5ea5 433f cd7c e83f 4ac3 64bf f5b1 15c0
00000360: d287 55be 22ff f1bf 6b11 19bf b832 73be
00000370: b52c de3d 3b28 01c0 afcf 1e3e b6f5 69bf
00000380: e84c 463f 7dfa f43e b902 4b3e 0059 aa3f
00000390: 2e42 b2be 5390 313f c6c6 6d3f cf48 aebf
000003a0: c324 363f 5a85 893f a890 993f 42b4 a7be
000003b0: 6cd5 3abf 761e 93bf bca1 dfbf 7fe3 5dbf
000003c0: a403 133e 0fe5 183f 759f b63e 145f a53f
000003d0: ad7c 4abe a11f 2a3f ca93 1b3f 7e8d f9be
000003e0: b335 a53f 3bae eebc 36e3 2a3f 3d88 cb3f
000003f0: 52dd 48be c31e 0bc0 1215 87bd 005a 923e

mlp.0.weight f4 [64, 32]
-0.14079773 -0.14795372 0.017898545 0.112561665 -0.010865411 -0.10943741 0.019070806 -0.15795368
0.04908501 0.17233133 -0.10302858 0.2019436 -0.15267783 -0.1325194 0.015072895 -0.06868096
-0.08404383 0.08232533 -0.14965752 0.022031276 0.03533695 0.067912385 -0.026608123 0.1556148
0.07919486 -0.07005971 0.0057796626 0.10705809 0.030388707 -0.03395019 -0.11149547 -0.04010888
-0.056823093 0.076218754 -0.13883096 -0.18254769 0.013277413 -0.051234744 0.03172664 -0.15313226
-0.113335624 -0.11265839 -0.1315337 0.046777528 -0.07599673 -0.07075249 0.088942304 -0.13466732
0.1899418 0.11284068 0.16018327 -0.15725566 0.029873043 0.1925352 -0.014298046 0.0118814185
0.117387295 0.122947074 -0.05889746 0.042979237 0.012284029 -0.059793074 -0.06880622 0.008647839
-0.116020314 -0.042654675 -0.12676667 -0.062217228 0.10041604 0.18572548 0.057794727 0.1116377
0.13319175 0.21524304 -0.18857993 0.15602922 -0.07545409 -0.17222355 -0.048148893 -0.12169074
0.11544493 -0.11467426 -0.07238371 -0.18076843 -0.019421868 -0.16997384 -0.0037840537 0.13595563
0.022808233 -0.022258619 0.037088104 0.071054116 -0.19715409 -0.11893174 -0.035904195 0.123183124
-0.10342795 -0.13488148 -0.029061725 -0.10360069 0.085306525 0.07949312 -0.032055248 0.07110905
0.13320266 -0.13952778 0.12742676 -0.1427312 0.074563555 -0.055996507 -0.013184319 -0.06551534
-0.08136562 0.03667773 -0.13123147 0.088260144 0.17693645 -0.057186548 0.033057794 0.04885378
-0.12262268 0.14456247 -0.15542887 -0.02947753 0.05976887 0.14337416 0.01772007 -0.04476429
0.07405115 -0.029079508 -0.05104108 0.06369413 0.0036460308 0.19731633 -0.12560092 0.026682245
-0.02455593 0.13246702 -0.20243627 -0.09982969 -0.18803632 -0.17376542 0.009299095 -0.0917925
-0.038191207 -0.14000459 0.04298573 -0.064779036 0.081351854 -0.13406816 0.023361089 -0.071562596
-0.11905992 -0.08392753 -0.1004484 0.037259933 -0.11645494 -0.026375053 0.016947294 0.027964864
0.11577175 -0.09135878 -0.062377617 -0.121854596 0.12598139 0.19762251 0.12682283 -0.054685134
0.07862027 0.13356805 -0.15296903 0.09507745 -0.17339022 0.0955583 0.16612469 -0.18242292
-0.032971878 -0.10800259 0.045755133 -0.12780389 -0.25822288 -0.12788896 0.066606015 0.15016258
0.13984333 0.21675251 -0.01362221 -0.11781687 -0.05499895 0.08253283 0.072281815 0.013029195
0.06302119 -0.09735849 -0.13057704 -0.026498267 0.11072503 -0.043385223 -0.012265928 0.10665478
-0.117955506 0.017708289 -0.101661764 0.17431107 0.17895211 0.028421339 -0.0605184 -0.14609988
-0.07529726 0.13107404 -0.12835546 0.09263715 0.081444636 0.06496837 0.08502297 -0.040187147
-0.051511846 0.0073065693 -0.12400314 -0.013165543 -0.06463841 -0.12762153 -0.03896934 0.11030039
-0.14068663 0.13076602 0.0547549 -0.04163511 -0.0591179 -0.13387187 -0.041912917 -0.15292828
0.007781929 -0.14522466 0.18473697 -0.09136754 -0.09425219 0.19589962 0.091607146 0.11166947
0.1182271 0.11984659 0.06570023 0.14458226 0.14920905 -0.0638012 -0.015369567 0.14372538
0.10989104 -0.006479846 0.085845515 -0.053213622 0.06637788 0.09457035 0.033599943 -0.16280043
00000000: 482d 10be 2e81 17be f89f 923c bb86 e63d
00000010: d604 32bc b920 e0bd 613a 9c3c 9cbe 21be
00000020: 5d0d 493d a077 303e a600 d3bd 4eca 4e3e
00000030: 9457 1cbe 2ab3 07be 4ef4 763c 9aa8 8cbd
00000040: 2c1f acbd 2f9a a83d d23f 19be ef7a b43c
00000050: 7abd 103d a615 8b3d 47f9 d9bc 7c59 1f3e
00000060: ea30 a23d 777b 8fbd 5363 bd3b 4641 db3d
00000070: bdf1 f83c 5b0f 0bbd bd57 e4bd 3549 24bd
00000080: 55bf 68bd 9418 9c3d b429 0ebe c8ed 3abe
00000090: 8289 593c 86db 51bd cbf3 013d b4ce 1cbe
000000a0: 821c e8bd 71b9 e6bd c5b0 06be cb99 3f3d
000000b0: 2ca4 9bbd aee6 90bd 6227 b63d 3be6 09be
000000c0: 1a80 423e 0419 e73d 1507 243e a107 21be
000000d0: 50b8 f43c f327 453e 5a42 6abc 48aa 423c
000000e0: c068 f03d adcb fb3d 773e 71bd ff0a 303d
000000f0: f442 493c 95e9 74bd 47ea 8cbd aaaf 0d3c
00000100: 0f9c edbd abb6 2ebd 1fcf 01be 7ed7 7ebd
00000110: eda6 cd3d d22e 3e3e 2aba 6c3d 4ea2 e43d
00000120: 6b63 083e ac68 5c3e 191b 41be 20c6 1f3e
00000130: ad87 9abd 5f5b 30be c637 45bd ff38 f9bd
00000140: 646e ec3d 57da eabd e93d 94bd 5c1b 39be
00000150: 9c1a 9fbc 9f0d 2ebe e3fd 77bb f437 0b3e
00000160: 55d8 ba3c b557 b6bc b2e9 173d d284 913d
00000170: c3e2 49be 7c92 f3bd 4710 13bd 6f47 fc3d
00000180: 08d2 d3bd 5f1e 0abe db12 eebc 992c d4bd
00000190: 30b5 ae3d 4acd a23d 5d4c 03bd 9fa1 913d
000001a0: 4766 083e 5fe0 0ebe 297c 023e 2128 12be
000001b0: c7b4 983d 985c 65bd 0b03 58bc e82c 86bd
000001c0: 05a3 a6bd 633b 163d 8b61 06be bcc1 b43d
000001d0: d42e 353e 713c 6abd 9c67 073d e71a 483d
000001e0: 9a21 fbbd 2f08 143e bf28 1fbe dc7a f1bc
000001f0: 34d0 743d add0 123e ae29 913c c35a 37bd
00000200: 21a8 973d 2638 eebc 7410 51bd 1172 823d
00000210: 3ff2 6e3b 4b0d 4a3e 879d 00be b994 da3c
00000220: 8529 c9bc 6fa5 073e 744b 4fbe 8273 ccbd
00000230: 988c 40be 90ef 31be 3b5b 183c b5fd bbbd
00000240: 626e 1cbd 5d5d 0fbe ce11 303d dfaa 84bd
00000250: cd9b a63d 2a49 09be c15f bf3c 698f 92bd
00000260: b0d5 f3bd 32e2 abbd e4b7 cdbd df9d 183d
00000270: ed7f eebd 7f10 d8bc 0dd5 8a3c 9216 e53c
00000280: bd19 ed3d 501a bbbd ac7f 7fbd e78e f9bd
00000290: 4401 013e 8e5d 4a3e d8dd 013e 85fd 5fbd
000002a0: aa03 a13d 10c6 083e eaa3 1cbe f7b7 c23d
000002b0: 358d 31be 12b4 c33d 971c 2a3e 13cd 3abe
000002c0: 850d 07bd 7630 ddbd bc69 3b3d 06df 02be
000002d0: ca35 84be 53f5 02be bc68 883d 38c4 193e
000002e0: 1733 0f3e 5ff4 5d3e b12f 5fbc f949 f1bd
000002f0: 9446 61bd f906 a93d 7d08 943d 6878 553c
00000300: 4111 813d e363 c7bd fdb5 05be e512 d9bc
00000310: cec3 e23d b4b4 31bd 08f7 48bc d26d da3d
00000320: a892 f1bd f910 913c 0b34 d0bd 9a7e 323e
00000330: 393f 373e ded3 e83c 24e2 77bd 359b 15be
00000340: 7335 9abd 4638 063e 9d6f 03be 8cb8 bd3d
00000350: 72cc a63d 230e 853d 8620 ae3d 479b 24bd
00000360: 16fe 52bd f26b ef3b 5cf5 fdbd 4ab4 57bc
00000370: 2561 84bd 38af 02be 519e 1fbd 2ce5 e13d
00000380: 2810 10be 87e7 053e ad46 603d 9489 2abd
00000390: 9c25 72bd b515 09be e1ac 2bbd 3b99 1cbe
000003a0: 8dff fe3b c6b5 14be b02b 3d3e e81e bbbd
000003b0: 4b07 c1bd e999 483e 879c bb3d f7b2 e43d
000003c0: 0d21 f23d 2172 f53d d88d 863d 5f0d 143e
000003d0: 42ca 183e 34aa 82bd a3d0 7bbc bf2c 133e
000003e0: 8e0e e13d e354 d4bb c6cf af3d 87f6 59bd
000003f0: 20f1 873d 1aae c13d 18a0 093d 28b5 26be

mlp.0.bias f4 [64]
-0.03728931 -0.24529512 -0.10681315 -0.020202579 -0.048836585 -0.15427324 0.05859493 0.10846263
0.27354214 0.15776229 0.06583704 0.25941584 0.080372095 -0.26581934 -0.2076393 -0.25952077
0.021495448 0.011250549 0.036132637 -0.23298764 0.105125286 -0.12867343 0.1567037 0.17542237
-0.079046816 0.05258125 0.21514317 -0.04961592 0.23530632 -0.039980873 -0.05907889 0.1169652
0.009774884 -0.04442016 0.23176472 -0.04246777 0.08589157 -0.1295809 0.105275005 0.18047623
0.1691732 -0.011814646 -0.09726533 0.18577401 -0.07422057 0.23665689 -0.04566531 -0.09033288
-0.2188978 -0.2032206 0.112904616 -0.0977837 -0.15701014 0.008945262 -0.0747308 0.15900467
-0.087085724 -0.06169835 0.11667842 0.22773053 -0.13325274 0.008778817 -0.114719 -0.11939849
00000000: adbc 18bd a52e 7bbe dac0 dabd e17f a5bc
00000010: df08 48bd cef9 1dbe 3d01 703d a821 de3d
00000020: b70d 8c3e 708c 213e 92d5 863d 27d2 843e
00000030: 209a a43d 7919 88be 669f 54be e8df 84be
00000040: 3917 b03c 3954 383c d1ff 133d 5094 6ebe
00000050: ed4b d73d f8c2 03be ef76 203e eca1 333e
00000060: 4ce3 a1bd 705f 573d 7e4e 5c3e 103a 4bbd
00000070: 24f4 703e fcc2 23bd b5fc 71bd 738b ef3d
00000080: d626 203c eaf1 35bd bb53 6d3e aff2 2dbd
00000090: ebe7 af3d dbb0 04be 6c9a d73d c3ce 383e
000000a0: bd3b 2d3e 3892 41bc 0c33 c7bd 8b3b 3e3e
000000b0: f400 98bd 2f56 723e 8c0b 3bbd 7200 b9bd
000000c0: bf26 60be 1019 50be 893a e73d d242 c8bd
000000d0: 44c7 20be 268f 123c 760c 99bd 1fd2 223e
000000e0: 005a b2bd 69b7 7cbd 18f5 ee3d 3132 693e
000000f0: 6873 08be 07d5 0f3c ccf1 eabd 3287 f4bd

mlp.2.weight f4 [1, 64]
-0.0051583634 -0.054467022 -0.10900759 0.13725881 -0.04143553 -0.06851655 -0.0408949 0.0117339445
0.15973377 0.108714625 0.03958946 0.12960298 0.016802115 -0.021820994 -0.1174894 -0.06473388
0.03658003 0.11357555 0.071746744 -0.10799291 0.06537804 -0.037890624 0.11457275 0.07457334
-0.04571679 -0.07143402 0.06448376 0.12271591 0.11986717 -0.060225215 -0.15816766 0.17351066
-0.13476744 0.09062894 0.13437891 0.075327754 -0.11134394 -0.014560435 0.03807186 0.10640539
0.06852671 -0.026068011 0.041166198 0.14007163 0.052277345 0.13259593 0.024724824 0.04157685
-0.030414326 -0.01786459 0.085454054 0.12733404 -0.11534819 -0.09885643 -0.0018324968 0.09289531
-0.055818725 -0.06635903 0.054883577 0.03482916 -0.045995448 0.11865918 0.015872512 -0.008021036
00000000: 7d07 a9bb d018 5fbd 5f3f dfbd 938d 0c3e
00000010: 4db8 29bd 6852 8cbd 6981 27bd bb3f 403c
00000020: 4091 233e c6a5 de3d 8f28 223d a5b6 043e
00000030: 97a4 893c f1c1 b2bc 489e f0bd 3293 84bd
00000040: f1d4 153d 4c9a e83d f5ef 923d 632b ddbd
00000050: ece4 853d 3333 1bbd 1ea5 ea3d e8b9 983d
00000060: 8741 3bbd 004c 92bd 1010 843d 7b52 fb3d
00000070: eb7c f53d b7ae 76bd b4f6 21be c7ac 313e
00000080: 7a00 0abe aa9b b93d a09a 093e 7045 9a3d
00000090: 4b08 e4bd e48e 6ebc 3df1 1b3d 12eb d93d
000000a0: bb57 8c3d 958c d5bc e39d 283d f06e 0f3e
000000b0: c520 563d 3ac7 073e b78b ca3c 7d4c 2a3d
000000c0: 7727 f9bc c358 92bc 8902 af3d db63 023e
000000d0: ac3b ecbd 3d75 cabd 6430 f0ba e53f be3d
000000e0: 2da2 64bd 3ee7 87bd 9acd 603d 05a9 0e3d
000000f0: b965 3cbd 9603 f33d 1207 823c aa6a 03bc
