tag_model.pt (torch, 286895 bytes, 4 tensors)

embedding.weight f4 [2151, 32]
000000 b5 35 56 bf f9 ad 73 bf 28 58 4c bf 6a e4 bf 3f
       -0.836757 -0.95187336 -0.79822016 1.4991581
000010 7b b2 aa 3f 9e 40 43 3e b1 19 20 3f 2c ec 4f 3e
       1.3335718 0.19067618 0.625392 0.20304936
000020 e7 cf 8e bf f6 37 c6 3f 27 3b 62 be b8 23 88 be
       -1.1157197 1.5485828 -0.22092877 -0.2658975
000030 4a 25 26 40 d8 5b a7 bf a6 13 f3 bd 22 56 a6 bf
       2.596026 -1.3074903 -0.11868982 -1.2995036
000040 be a1 53 bf ce e1 3c bf f8 31 5f bf 4a 77 c2 3f
       -0.82668674 -0.7378205 -0.8718562 1.5192654
000050 f8 4a 6a bf 0c 67 5d 3f bb 1d 1c be 7d 87 aa 3f
       -0.91520643 0.8648536 -0.15245716 1.3322598
000060 c9 60 aa 3e c9 06 56 be 75 a5 74 be 3a bf 4e be
       0.33276966 -0.20901026 -0.23891242 -0.20190135
000070 4d 14 57 bf 3e 56 c7 3e d7 35 81 be eb 68 54 3d
       -0.8401535 0.38932985 -0.2523639 0.05185787
000080 54 4c 23 bf d4 68 37 c0 1a 5c 60 bf 25 84 59 bf
       -0.6378834 -2.8657732 -0.87640536 -0.8496726
000090 f7 a4 a1 3f 4d ce 3f bf 21 dc c0 bf 7a 1c 06 40
       1.2628468 -0.74924165 -1.5067178 2.095488
0000a0 ca ef 30 bf bd 3e 86 bd e8 48 86 3e 7f 5b 4c 3f
       -0.6911589 -0.06554935 0.26227498 0.7982711
0000b0 89 1c f1 be 66 00 0d bf ed 2f 55 3f ef 9a d9 be
       -0.47092083 -0.5507873 0.83276254 -0.42501017
0000c0 3c b0 34 bf 68 e0 0e bf 4e cb 2a be a7 69 7b be
       -0.7058141 -0.55811167 -0.16679117 -0.24552022
0000d0 18 00 7f be b6 33 06 3f e0 98 12 be ab d8 6c 3f
       -0.2490238 0.52422655 -0.1431613 0.9251811
0000e0 67 11 b6 3f 40 38 26 be b0 51 c8 bf 0c 72 0c 3e
       1.4224061 -0.16232395 -1.5649929 0.1371538
0000f0 7b b5 15 bf 84 cd de be b8 ce c2 3e fd 77 e2 3f
       -0.5848004 -0.4351617 0.3804834 1.7692868
000100 b1 40 cc bd 44 3a 2f bf 1f 1e 80 be 04 6f de 3e
       -0.099732764 -0.6844828 -0.2502298 0.43444073
000110 01 bf 88 3f f4 ec f3 be 4f 88 7a 3f e2 89 43 3f
       1.068329 -0.47641718 0.9786424 0.7638227
000120 f0 5f b1 bf 4e 73 9d 3f 22 59 fc bd b8 7a 17 3f
       -1.3857403 1.2300813 -0.12321688 0.5917163
000130 07 65 09 c0 e5 8b 4e bf 48 bd 85 bf 98 ea ce bf
       -2.1467912 -0.8068221 -1.0448389 -1.6165342
000140 14 ce 2d bf 71 9a 82 bf 5b e3 2f 3f c1 72 ef be
       -0.67892575 -1.0203382 0.6870629 -0.46767238
000150 d3 22 87 bf 3e 61 b1 3f d3 33 23 bf 63 4b 35 3f
       -1.0557503 1.3857801 -0.6375095 0.70818156
000160 57 9d 11 3f db e7 93 be 6f ff 31 3f 68 ab 94 bf
       0.56880707 -0.2888783 0.69530386 -1.1614809
000170 f9 ed 4a 3e 2d a7 32 3f fc 5d dc bd 7d 66 23 bd
       0.19817342 0.6978634 -0.107601136 -0.039892662
000180 6d df aa 3f 43 70 bd bd 86 aa a2 bf fb 0d 5d bf
       1.3349434 -0.09249928 -1.270829 -0.8634946
000190 59 2a 11 40 83 01 10 bf c1 7e 29 be de ec 52 3d
       2.2682097 -0.56252307 -0.16552259 0.051495425
0001a0 fe 8d 1e 3e fe 2e 73 3d 77 5e 37 3e 51 8b c3 bd
       0.15483853 0.059370987 0.17907129 -0.09548057
0001b0 41 08 99 be 1a 26 6c bf 84 24 de bf 0b 0f 2d 3e
       -0.2988911 -0.9224564 -1.7354894 0.1690027
0001c0 87 63 97 3f a1 d3 43 bf 5e 3d b7 be 9d 4f 18 bf
       1.1827248 -0.76494795 -0.35789007 -0.5949648
0001d0 06 da 96 bf 0f 9b f1 3d 22 67 e1 bf 3f f1 05 c0
       -1.1785285 0.11797153 -1.7609599 -2.0928495
0001e0 21 ff 0e c0 6f 3f 78 3f 7f c0 1e 3f f5 49 80 3f
       -2.2343218 0.9697179 0.62012476 1.002257
0001f0 38 b4 ef 3e 1d 4a 77 bf 23 de e0 bd bd a4 cf be
       0.46817183 -0.9659746 -0.10979869 -0.40555373
000200 df 03 e2 bf 65 c6 d8 3f d3 59 2a 40 2f 14 f4 bf
       -1.7657431 1.6935545 2.6617324 -1.906866
000210 d5 eb cd 3f cc 92 38 3f ad 5e 70 3f bc 21 54 be
       1.6087595 0.72098994 0.93894464 -0.20715994
000220 3a 5c d6 be 7d 4a d8 3f 23 c0 91 3e 27 0a 18 3e
       -0.41867238 1.6897732 0.284669 0.14847623
000230 fc c3 2b 3f 26 a2 b9 be 5a 51 8e bf 81 f4 82 3f
       0.67095923 -0.36256522 -1.1118577 1.0230867
000240 43 9c d4 be 28 e8 b0 3f 7c b6 81 3f d5 57 6d be
       -0.41525468 1.3820848 1.0133815 -0.23178037
000250 52 d5 1f bf 3a 2d 07 c0 af 27 76 3e b9 05 44 bf
       -0.62434876 -2.1121354 0.24038576 -0.7657123
000260 80 89 2f 3e 08 dd 47 bf 4e 97 ce 3f ad 24 09 bf
       0.17142296 -0.7807164 1.6139925 -0.5357159
000270 7f 51 5b 3f 59 37 66 bf cd 6e 8a 3f d1 97 34 3f
       0.8567123 -0.89928204 1.0815064 0.70544153
000280 d6 ba ba be 73 0b f5 3f 2d 72 cf bf 27 9f f8 3f
       -0.3647067 1.9144119 -1.6206719 1.942357
000290 52 f2 02 bf df d5 30 bf 64 d2 a0 bf 0f ce e4 3e
       -0.51151 -0.6907634 -1.2564206 0.4468846
0002a0 eb c1 78 3e dc ba 90 be f7 c5 fa 3f 10 a0 9e 3f
       0.24292724 -0.28267562 1.9591664 1.2392597
0002b0 36 bd 36 bf 18 bf cc bf a8 23 a9 bf 28 4b f5 3e
       -0.7138246 -1.5995817 -1.3214006 0.47908902
0002c0 6f 8b fc be d5 39 0d bf df 3f 05 c0 ff ad 88 3f
       -0.4932513 -0.5516637 -2.0820234 1.0678099
0002d0 64 50 b8 be 6f c3 aa be d2 e5 18 bf a4 e6 94 bf
       -0.35998833 -0.3335223 -0.5972568 -1.1632886
0002e0 1c d3 9b bf 31 1c b8 3f 5c 4e 8e be 8d e1 4a bf
       -1.21738 1.4383603 -0.27794158 -0.79250413
0002f0 d1 c0 dd 3e 1f 8d 09 bf 89 6e 10 3f e6 c4 9d bf
       0.4331117 -0.5373096 0.56418663 -1.2325714
000300 1d 5f 26 3f 21 52 81 bf 48 b7 f1 3f d0 ec ab 3f
       0.6498888 -1.0103189 1.8884058 1.3431644
000310 6c c6 93 3d 4f c8 bc bd ca 80 c3 3f cc a2 67 3d
       0.0721558 -0.09217893 1.5273678 0.05655174
000320 d2 6a 04 bd bd c8 ad bf 17 f6 e0 bf 43 50 1e 3f
       -0.032328434 -1.3576885 -1.7575101 0.6184122
000330 5c 10 cb bf 78 e5 00 bf a7 82 d7 3f e6 97 57 3f
       -1.5864367 -0.5035014 1.6836747 0.84216154
000340 ca 78 36 bf 5e e6 10 40 33 17 ac bc 97 50 d0 bf
       -0.7127806 2.2640605 -0.021007156 -1.6274594
000350 1d 5f 1b 3f e7 94 b2 3d 76 58 70 be ad 3c 9e bd
       0.60692006 0.08719807 -0.23471245 -0.07726417
000360 20 5e bd 3f 45 c2 a3 3f ad b4 0e 40 73 7b 59 3e
       1.479435 1.2793661 2.2297776 0.21238498
000370 4d 1c fa 3e 9c 69 f1 be 14 0b 98 bf 6a 08 90 3f
       0.48849717 -0.47150886 -1.1878381 1.1252568
000380 cf fd 57 3f 33 ac ca 3f 79 62 34 be b3 7d b6 bf
       0.84371656 1.5833801 -0.1761569 -1.425711
000390 57 b3 69 3f 2b 5e 16 3e 66 92 22 bf 2c da 8a 3e
       0.91289276 0.1468436 -0.63504636 0.27119577
0003a0 6f 04 00 40 f3 f8 d8 be 91 10 90 3e 67 5b b6 be
       2.0002706 -0.42377433 0.2813764 -0.3561661
0003b0 a8 29 12 be e6 f6 dc 3f ae a8 98 be 4a 07 93 bf
       -0.14273703 1.7262847 -0.29816192 -1.14866
0003c0 3e 90 fb be 74 1e 03 bf ea cf 7f 3f 47 6a 0c be
       -0.49133486 -0.5121834 0.99926627 -0.13712417
0003d0 b1 f3 d9 bf de 08 91 bf f7 1b 03 3f 16 d6 ab be
       -1.7027494 -1.1330831 0.51214546 -0.33561772
0003e0 fb 33 50 3d 69 e2 37 bf 54 5e 15 3f 01 22 2f be
       0.050830822 -0.7182985 0.5834706 -0.17102815
0003f0 31 f1 b1 bf 13 52 10 bf 7e e6 89 3f c4 97 83 3f
       -1.3901731 -0.56375235 1.0773466 1.028069

mlp.0.weight f4 [64, 32]
000000 03 3a 4e be 46 ef 3e be 6c c0 42 3e 6f 61 61 3d
       -0.20139317 -0.18645963 0.19018716 0.05502456
000010 a4 72 f5 bd 21 c0 71 3e 35 3a 58 3e e5 df 86 be
       -0.119847566 0.23608448 0.21115954 -0.26342693
000020 7b 4a 17 bd 44 ab a5 bc d1 fc 5c be 4e fb f4 3e
       -0.036936264 -0.020223267 -0.21580817 0.4784798
000030 55 60 5a 3d 3d 41 0b 3e 00 ac be 3e 92 11 1e be
       0.053314526 0.13599105 0.372406 -0.1543639
000040 d1 24 94 be 2d 2d 5b 3e 7c c4 c2 3d 5c 37 b6 3d
       -0.2893434 0.21403952 0.09510133 0.08897278
000050 92 ed 1e be 4c e0 82 3d 5d 10 cf be 52 3d bf bd
       -0.15520313 0.063904375 -0.40442172 -0.09337868
000060 cf 61 c5 3e 24 b3 e9 3d 8d 9e 73 3e 7f 33 02 bf
       0.38551185 0.114111215 0.23790951 -0.50859827
000070 6c 07 41 3e c2 52 37 3e 09 7e fb be 62 89 23 3f
       0.18850487 0.17902663 -0.49119595 0.63881505
000080 8e be 9f 3d 7b cb 00 3e f7 13 de 3d c6 37 f8 bd
       0.07800017 0.12577622 0.10843652 -0.12120013
000090 ce c7 09 bb ab 32 80 3d 9c 2a 94 3d 0d 6e 67 be
       -0.0021023634 0.06259664 0.072346896 -0.22600575
0000a0 f2 ac b4 3d cb ad d7 bd d0 63 f5 bd 3b 76 85 3e
       0.08822049 -0.10531195 -0.11981928 0.26066765
0000b0 4f 79 ce 3d 62 15 7b bd ef ae 4f 3e 99 41 f7 bd
       0.100817315 -0.06129969 0.20281576 -0.12073059
0000c0 28 fb 79 bc 4e 3b a8 3d 1a 68 33 3e 31 8b 69 3e
       -0.015257634 0.082144365 0.1752018 0.22807004
0000d0 57 81 0d be 9c fe e9 3c f3 e5 48 bd fc 70 ce 3d
       -0.1381887 0.02856379 -0.04904742 0.10080144
0000e0 12 9e cf 3d 75 84 77 3e 9c 98 a4 3e 02 9d fe be
       0.101375714 0.24171622 0.32147682 -0.49729162
0000f0 dd e3 2e 3e be 88 27 3d b6 e7 26 be a9 e3 04 3f
       0.1707911 0.040901892 -0.16299328 0.5190988
000100 32 77 cc ba ee e1 88 bc ff 07 b9 bd b4 2d d1 3d
       -0.0015599488 -0.016709294 -0.09034728 0.10213795
000110 ef 16 e1 3d 4a 2f e9 3d ae 5f 8d 3e 04 89 d0 bd
       0.10990702 0.11385973 0.2761206 -0.10182384
000120 56 56 a9 bd 89 df 06 3e ed de 5b be 44 98 f7 3e
       -0.082684204 0.1317121 -0.21471758 0.48358357
000130 e0 0c ed bc 2c 98 c7 bd 05 cb 9f 3e be b1 9e bd
       -0.028936803 -0.09745821 0.3120958 -0.077487454
000140 a9 68 17 be d7 b7 1d bd 26 37 b0 bc 51 72 a0 3c
       -0.14786018 -0.0385054 -0.021510672 0.01958576
000150 9f 7f d8 3d 4e d6 74 3d 99 68 44 be b3 be dc 3d
       0.10571217 0.05977469 -0.19180526 0.107785605
000160 8e 1a b6 3e 3a 69 df 3d fd d9 bb 3d bc 45 38 be
       0.35567135 0.10908742 0.09172437 -0.17995352
000170 39 9a 9c bd 66 43 5c 3e 27 b1 c0 be c3 a9 f3 3e
       -0.07646603 0.21510085 -0.37635157 0.47590455
000180 06 16 55 bd 7b 75 7b 3d f0 46 05 bd 45 48 0e 3e
       -0.052022956 0.061391335 -0.032538354 0.13894756
000190 3e 15 c4 3c 79 89 8c 3e 37 f0 7c 3d aa a0 62 bd
       0.02393591 0.27448633 0.061752524 -0.055329002
0001a0 49 a5 57 be e1 22 a6 bd 5b 61 99 be c2 43 78 3e
       -0.21059145 -0.081121214 -0.2995709 0.24244598
0001b0 b1 80 43 3d e5 ee cc 3d 14 8f 5a 3e 08 7c 98 bd
       0.04773015 0.10006503 0.21343642 -0.07445532
0001c0 df 72 32 be 3b 2a c7 bd 41 21 02 be ff d2 50 3d
       -0.17426632 -0.09724852 -0.12707998 0.05098247
0001d0 16 92 2f 3d 4a bf 8b bd 9e 2a 83 bc 0e 79 c4 bd
       0.042863928 -0.06823595 -0.016011532 -0.09593402
0001e0 f7 d4 46 3e 00 6a 4d 3e da b0 a4 3e ca 84 dd be
       0.19417177 0.20059967 0.32166177 -0.43265373
0001f0 f6 76 6d 3e 01 ad af 3e 6b 62 0a be 5e af f6 3e
       0.23189911 0.3431168 -0.13514106 0.4818067
000200 18 11 85 be b7 3c 01 be 8a a5 23 3e bf e1 f1 3d
       -0.25989604 -0.12620817 0.15981117 0.11810636
000210 0d 3f 88 bd 74 5c 8e 3e fa b5 78 3d dd 76 5c be
       -0.06652651 0.2780491 0.06072042 -0.21529718
000220 fd 1c 79 be 40 6f 1e bd b9 6f fc bd d8 a2 11 3f
       -0.24327464 -0.038680315 -0.12325997 0.56889105
000230 0a 6f 04 3d cd 97 23 3e 4f 88 08 3f 05 77 14 3e
       0.032332458 0.15975876 0.5333299 0.14498527
000240 33 34 8a bd e0 3e 04 3e d9 8d 3b 3e d6 72 60 3d
       -0.067482375 0.1291461 0.1831583 0.054797016
000250 fd 10 8e 3d 40 a6 81 bd 5e d1 2e be 7c 1f fa bc
       0.06936834 -0.06330538 -0.17072055 -0.030532591
000260 57 a9 95 3e fe 4c b9 3e 23 17 8e 3e d7 cc b8 be
       0.2923076 0.36191553 0.27752027 -0.3609378
000270 ee 01 0a bd c4 41 49 3e 16 87 9d be 98 7b 38 3f
       -0.033693247 0.19653994 -0.30767125 0.7206359
000280 f0 38 b0 3c df 76 90 bd 28 4e 41 3e af ce 4c 3d
       0.021511525 -0.07053923 0.1887747 0.050001796
000290 69 bf dd 3d f9 05 06 3e 72 95 54 3e 66 ec 66 be
       0.10827524 0.13088216 0.20760134 -0.22551116
0002a0 10 d5 20 bd f8 38 a2 3d 7f a7 ad bd af 0d 09 3f
       -0.039265692 0.07921022 -0.08479213 0.53536505
0002b0 99 d2 ae 3d a8 e6 64 3d 71 48 02 3f 82 ad 3a bd
       0.08536262 0.055884033 0.50891787 -0.045575626
0002c0 2f 9d 39 bd fc 67 8a 3e aa fc 1f 3c a6 59 83 3d
       -0.045315918 0.2703246 0.00976483 0.064135835
0002d0 c6 cd 3d be 1d 55 e3 bd 3d be 76 be cd 34 4d bd
       -0.18535528 -0.111002184 -0.24096008 -0.050099183
0002e0 67 7f 5d 3d 05 5c a0 3e 96 00 a1 3e e2 db ae be
       0.05407658 0.31320205 0.3144576 -0.34152132
0002f0 6f d3 58 3e 45 9f 7b 3d 71 d4 eb be fd 2f b4 3e
       0.21174406 0.061431188 -0.46060517 0.35192862
000300 6b 90 84 be e7 bb 22 be 8a 29 f1 39 78 75 e4 bd
       -0.25891432 -0.15891992 0.0004599805 -0.11155218
000310 bc cb 2e be 7f 43 a2 3e 06 c1 4f 3e d0 cb eb be
       -0.17069906 0.3169212 0.20288476 -0.46053934
000320 f2 9e be 3d 12 ae 77 3d 4d 20 be bd b3 f1 1a 3f
       0.0930766 0.06046874 -0.09283505 0.60525054
000330 cf 55 d2 bc d1 42 54 3e 0d 74 eb 3e 25 3d e8 bd
       -0.025675682 0.20728613 0.45986977 -0.113397874
000340 0b 1d 39 bd 87 c4 dd 3c 4a 0b 52 3c ae ad cb bc
       -0.045193713 0.02707125 0.012820074 -0.02486309
000350 a7 f1 77 be d3 fe b8 bc a5 a6 d8 bd 24 f2 22 3d
       -0.24213277 -0.022582447 -0.1057866 0.039781705
000360 98 ba cc 3e 7c 26 5b 3e 2d bf e5 3e 85 bb 9c be
       0.3998611 0.214014 0.44872418 -0.30611816
000370 52 56 24 bd d3 f0 41 3d c7 80 07 bf 09 02 26 3f
       -0.040121384 0.04734881 -0.52930874 0.64846855
000380 b8 85 f7 3d 41 e7 67 bd bd 1c a6 3d 4e b4 c0 3c
       0.12086052 -0.056617025 0.0811095 0.023523476
000390 64 65 74 bc 6f b4 a8 bd b1 15 9e bd 5b c0 12 3e
       -0.0149167515 -0.0823754 -0.07718981 0.1433119
0003a0 0e 2e b4 bb 7f f5 64 3d 5f cf 0c 3e de 35 02 be
       -0.005498654 0.055898186 0.13750981 -0.12715861
0003b0 9e 57 a7 3d a3 a9 96 3d 11 dc e1 3c d1 55 e8 bc
       0.081710085 0.073565744 0.027570756 -0.028361233
0003c0 ca 35 3a 3d 52 cc 3f bd 29 69 e0 bd f0 9b 23 bc
       0.045461453 -0.046825714 -0.10957558 -0.009985909
0003d0 71 6f c9 bd e8 e8 50 3d 64 be 23 bd c9 bf ba bd
       -0.09835709 0.051003367 -0.039976493 -0.09118611
0003e0 e2 34 2b be e3 1b 0d be f1 0e 20 3e f8 c1 07 be
       -0.16719392 -0.13780169 0.156307 -0.13257587
0003f0 17 dc 3b 3e a4 d2 48 3d cc bc 36 bd 06 02 cd bd
       0.18345676 0.049029008 -0.044613644 -0.100101516

mlp.0.bias f4 [64]
000000 bc 1d a0 3c 9d a2 35 3e a9 f5 ef bc b1 0b 83 bd
       0.019545428 0.17737813 -0.029291945 -0.06398714
000010 8e af 61 3e 1c 25 dd 3d cf 5f 5e 3e bc 79 43 be
       0.22039625 0.10798094 0.21716236 -0.19089407
000020 ca c9 a6 3d 3c 28 3f 3e 8c 4b 81 3c 80 fd b5 3d
       0.08143957 0.18667692 0.015783094 0.08886242
000030 85 b6 45 3e 51 72 8b 3d 09 d1 0c be b8 63 1a 3e
       0.19307907 0.068089135 -0.13751616 0.15077102
000040 ec ea 9a 3d 88 ff 84 3e 04 87 3d bd aa a0 6d 3e
       0.07564339 0.25976205 -0.04627134 0.2320582
000050 71 4b 48 3c 55 a1 2c 3e 11 e9 3f 3e 78 c6 3f be
       0.012225018 0.16858418 0.18741252 -0.18728054
000060 3b 8f 53 3e 57 c9 52 3e 68 76 90 bc 2d 23 05 3e
       0.20660107 0.20584618 -0.017634585 0.130017
000070 8e 48 34 3e 9b 7a bf 3d 8b 41 5b bc fd a7 ba bd
       0.17605802 0.09349557 -0.013382326 -0.091140725
000080 7d 8b 17 3e 5d ba 68 bc 80 59 14 3e b0 ab 02 3e
       0.14799304 -0.014204589 0.14487267 0.12760806
000090 80 98 b1 bd 8c 67 14 3e 55 53 c3 3d 3b c8 0f 3e
       -0.08671665 0.14492625 0.09537379 0.14041226
0000a0 68 99 90 bd a3 0e 16 3e 76 5a 20 3e 41 04 83 3d
       -0.0706051 0.14654021 0.15659508 0.06397296
0000b0 30 da b9 3d 61 65 49 3d 63 0d 50 3e d9 ef ce bd
       0.09074819 0.049168948 0.20317607 -0.10104341
0000c0 96 95 c2 3d 58 ab 3d 3d d6 7c 19 be 37 a0 1d 3d
       0.095011875 0.046305984 -0.14989027 0.03848287
0000d0 41 5f cc bd 1e a0 64 3e 9c f1 04 3e c6 5a 4f 3e
       -0.09979106 0.22326705 0.12982792 0.20249471
0000e0 94 57 0d 3e 54 81 d4 bd 8f c7 23 3e 44 d2 10 bd
       0.1380294 -0.1037623 0.15994094 -0.035356775
0000f0 2e 78 3d 3e ff 59 39 3c 13 6b dc 3d 0a cf 34 3d
       0.18502876 0.011312961 0.1076261 0.04414276

mlp.2.weight f4 [1, 64]
000000 24 fa cc 3e 92 b5 37 3e 07 57 73 3d 9b d6 71 3e
       0.40034592 0.17940357 0.059409168 0.23617022
000010 50 a2 e5 3e bf 9c 96 3e 38 49 92 3e 0d ca 83 bd
       0.44850397 0.29416463 0.28571486 -0.064350225
000020 ea cf bf bd cb 1f a6 be 20 72 ce be d1 5a bb be
       -0.09365828 -0.3244613 -0.40321445 -0.36592725
000030 99 72 e4 3e af 46 4f 3e 58 74 c7 bd bd 11 ad be
       0.4461868 0.20241807 -0.09738988 -0.33802596
000040 1e 65 bf be fc 74 10 3f f9 fc df 3d bb 00 ff be
       -0.37381834 0.56428504 0.109369226 -0.49805245
000050 23 47 93 3e 28 91 c8 be b1 53 1c 3f 4f 06 6e bd
       0.2876521 -0.39173245 0.610652 -0.058111485
000060 f6 29 54 3e eb e3 6f 3e dc 12 93 bd 64 81 b0 3b
       0.20719132 0.23426788 -0.071813315 0.0053865183
000070 d0 9c 4c 3e d1 8a 19 3f 97 08 4c be 9a 11 8a 3e
       0.19981694 0.5997744 -0.19925152 0.26966554
000080 9f cc 13 be a6 42 8d be b0 89 c7 be 7f fe df be
       -0.14433526 -0.2758991 -0.38972235 -0.43748853
000090 42 34 ff 3c 22 82 db 3e ab e6 a9 be 2a 14 93 3e
       0.031152848 0.4287272 -0.33183798 0.2872632
0000a0 4f fa 46 3e f7 5b 24 bf 74 11 33 3f e8 d3 ae be
       0.19431423 -0.6420283 0.69948506 -0.34146047
0000b0 db 72 d0 bc 6a 8e 39 3e 0f 35 07 3f 02 c5 6b 3d
       -0.025445392 0.18120733 0.52815336 0.05756093
0000c0 bc 2c f2 3e 2c 98 4c 3e 22 07 0f bc 90 47 dd 3e
       0.47299755 0.19979924 -0.008729728 0.4321866
0000d0 27 37 9b bd c1 a5 03 3f 08 04 c1 be 53 56 a0 be
       -0.07578879 0.51424795 -0.37698388 -0.3131586
0000e0 2d 5f 10 3e 0b ae 85 bd e9 74 9b be 4f 07 5d 3e
       0.14098807 -0.06527337 -0.30362633 0.2158482
0000f0 fc da a0 3e d7 60 08 3f f0 fb a6 be 03 ce 5f be
       0.31417072 0.53272766 -0.32614088 -0.21855931
